/home/mfumagal/Data/ImaGene/Binary/Results/Epoch1/S200/None
200None11
_________________________________________________________________
Layer (type)                 Output Shape              Param #   
=================================================================
conv2d_1 (Conv2D)            (None, 126, 126, 32)      320       
_________________________________________________________________
max_pooling2d_1 (MaxPooling2 (None, 63, 63, 32)        0         
_________________________________________________________________
conv2d_2 (Conv2D)            (None, 61, 61, 32)        9248      
_________________________________________________________________
max_pooling2d_2 (MaxPooling2 (None, 30, 30, 32)        0         
_________________________________________________________________
conv2d_3 (Conv2D)            (None, 28, 28, 32)        9248      
_________________________________________________________________
max_pooling2d_3 (MaxPooling2 (None, 14, 14, 32)        0         
_________________________________________________________________
flatten_1 (Flatten)          (None, 6272)              0         
_________________________________________________________________
dense_1 (Dense)              (None, 64)                401472    
_________________________________________________________________
dense_2 (Dense)              (None, 1)                 65        
=================================================================
Total params: 420,353
Trainable params: 420,353
Non-trainable params: 0
_________________________________________________________________
Written as/home/mfumagal/Data/ImaGene/Binary/Results/Epoch1/S200/None/net.png
200None12
200None13
200None14
200None15
200None16
200None17
200None18
200None19
200None110
[0.7868516273498535, 0.5]
/home/mfumagal/Data/ImaGene/Binary/Results/Epoch2/S200/None
200None21
_________________________________________________________________
Layer (type)                 Output Shape              Param #   
=================================================================
conv2d_1 (Conv2D)            (None, 126, 126, 32)      320       
_________________________________________________________________
max_pooling2d_1 (MaxPooling2 (None, 63, 63, 32)        0         
_________________________________________________________________
conv2d_2 (Conv2D)            (None, 61, 61, 32)        9248      
_________________________________________________________________
max_pooling2d_2 (MaxPooling2 (None, 30, 30, 32)        0         
_________________________________________________________________
conv2d_3 (Conv2D)            (None, 28, 28, 32)        9248      
_________________________________________________________________
max_pooling2d_3 (MaxPooling2 (None, 14, 14, 32)        0         
_________________________________________________________________
flatten_1 (Flatten)          (None, 6272)              0         
_________________________________________________________________
dense_1 (Dense)              (None, 64)                401472    
_________________________________________________________________
dense_2 (Dense)              (None, 1)                 65        
=================================================================
Total params: 420,353
Trainable params: 420,353
Non-trainable params: 0
_________________________________________________________________
Written as/home/mfumagal/Data/ImaGene/Binary/Results/Epoch2/S200/None/net.png
200None22
200None23
200None24
200None25
200None26
200None27
200None28
200None29
200None210
[0.7868399186134338, 0.5]
/home/mfumagal/Data/ImaGene/Binary/Results/Epoch3/S200/None
200None31
_________________________________________________________________
Layer (type)                 Output Shape              Param #   
=================================================================
conv2d_1 (Conv2D)            (None, 126, 126, 32)      320       
_________________________________________________________________
max_pooling2d_1 (MaxPooling2 (None, 63, 63, 32)        0         
_________________________________________________________________
conv2d_2 (Conv2D)            (None, 61, 61, 32)        9248      
_________________________________________________________________
max_pooling2d_2 (MaxPooling2 (None, 30, 30, 32)        0         
_________________________________________________________________
conv2d_3 (Conv2D)            (None, 28, 28, 32)        9248      
_________________________________________________________________
max_pooling2d_3 (MaxPooling2 (None, 14, 14, 32)        0         
_________________________________________________________________
flatten_1 (Flatten)          (None, 6272)              0         
_________________________________________________________________
dense_1 (Dense)              (None, 64)                401472    
_________________________________________________________________
dense_2 (Dense)              (None, 1)                 65        
=================================================================
Total params: 420,353
Trainable params: 420,353
Non-trainable params: 0
_________________________________________________________________
Written as/home/mfumagal/Data/ImaGene/Binary/Results/Epoch3/S200/None/net.png
200None32
200None33
200None34
200None35
200None36
200None37
200None38
200None39
200None310
[0.7868755488395691, 0.5]
/home/mfumagal/Data/ImaGene/Binary/Results/Epoch1/S200/Rows
200Rows11
_________________________________________________________________
Layer (type)                 Output Shape              Param #   
=================================================================
conv2d_1 (Conv2D)            (None, 126, 126, 32)      320       
_________________________________________________________________
max_pooling2d_1 (MaxPooling2 (None, 63, 63, 32)        0         
_________________________________________________________________
conv2d_2 (Conv2D)            (None, 61, 61, 32)        9248      
_________________________________________________________________
max_pooling2d_2 (MaxPooling2 (None, 30, 30, 32)        0         
_________________________________________________________________
conv2d_3 (Conv2D)            (None, 28, 28, 32)        9248      
_________________________________________________________________
max_pooling2d_3 (MaxPooling2 (None, 14, 14, 32)        0         
_________________________________________________________________
flatten_1 (Flatten)          (None, 6272)              0         
_________________________________________________________________
dense_1 (Dense)              (None, 64)                401472    
_________________________________________________________________
dense_2 (Dense)              (None, 1)                 65        
=================================================================
Total params: 420,353
Trainable params: 420,353
Non-trainable params: 0
_________________________________________________________________
Written as/home/mfumagal/Data/ImaGene/Binary/Results/Epoch1/S200/Rows/net.png
200Rows12
200Rows13
200Rows14
200Rows15
200Rows16
200Rows17
200Rows18
200Rows19
200Rows110
[0.3741683447360992, 0.93625]
/home/mfumagal/Data/ImaGene/Binary/Results/Epoch2/S200/Rows
200Rows21
_________________________________________________________________
Layer (type)                 Output Shape              Param #   
=================================================================
conv2d_1 (Conv2D)            (None, 126, 126, 32)      320       
_________________________________________________________________
max_pooling2d_1 (MaxPooling2 (None, 63, 63, 32)        0         
_________________________________________________________________
conv2d_2 (Conv2D)            (None, 61, 61, 32)        9248      
_________________________________________________________________
max_pooling2d_2 (MaxPooling2 (None, 30, 30, 32)        0         
_________________________________________________________________
conv2d_3 (Conv2D)            (None, 28, 28, 32)        9248      
_________________________________________________________________
max_pooling2d_3 (MaxPooling2 (None, 14, 14, 32)        0         
_________________________________________________________________
flatten_1 (Flatten)          (None, 6272)              0         
_________________________________________________________________
dense_1 (Dense)              (None, 64)                401472    
_________________________________________________________________
dense_2 (Dense)              (None, 1)                 65        
=================================================================
Total params: 420,353
Trainable params: 420,353
Non-trainable params: 0
_________________________________________________________________
Written as/home/mfumagal/Data/ImaGene/Binary/Results/Epoch2/S200/Rows/net.png
200Rows22
200Rows23
200Rows24
200Rows25
200Rows26
200Rows27
200Rows28
200Rows29
200Rows210
[0.7869294862747193, 0.5]
/home/mfumagal/Data/ImaGene/Binary/Results/Epoch3/S200/Rows
200Rows31
_________________________________________________________________
Layer (type)                 Output Shape              Param #   
=================================================================
conv2d_1 (Conv2D)            (None, 126, 126, 32)      320       
_________________________________________________________________
max_pooling2d_1 (MaxPooling2 (None, 63, 63, 32)        0         
_________________________________________________________________
conv2d_2 (Conv2D)            (None, 61, 61, 32)        9248      
_________________________________________________________________
max_pooling2d_2 (MaxPooling2 (None, 30, 30, 32)        0         
_________________________________________________________________
conv2d_3 (Conv2D)            (None, 28, 28, 32)        9248      
_________________________________________________________________
max_pooling2d_3 (MaxPooling2 (None, 14, 14, 32)        0         
_________________________________________________________________
flatten_1 (Flatten)          (None, 6272)              0         
_________________________________________________________________
dense_1 (Dense)              (None, 64)                401472    
_________________________________________________________________
dense_2 (Dense)              (None, 1)                 65        
=================================================================
Total params: 420,353
Trainable params: 420,353
Non-trainable params: 0
_________________________________________________________________
Written as/home/mfumagal/Data/ImaGene/Binary/Results/Epoch3/S200/Rows/net.png
200Rows32
200Rows33
200Rows34
200Rows35
200Rows36
200Rows37
200Rows38
200Rows39
200Rows310
[0.40212179291248323, 0.91175]
/home/mfumagal/Data/ImaGene/Binary/Results/Epoch1/S200/Cols
200Cols11
_________________________________________________________________
Layer (type)                 Output Shape              Param #   
=================================================================
conv2d_1 (Conv2D)            (None, 126, 126, 32)      320       
_________________________________________________________________
max_pooling2d_1 (MaxPooling2 (None, 63, 63, 32)        0         
_________________________________________________________________
conv2d_2 (Conv2D)            (None, 61, 61, 32)        9248      
_________________________________________________________________
max_pooling2d_2 (MaxPooling2 (None, 30, 30, 32)        0         
_________________________________________________________________
conv2d_3 (Conv2D)            (None, 28, 28, 32)        9248      
_________________________________________________________________
max_pooling2d_3 (MaxPooling2 (None, 14, 14, 32)        0         
_________________________________________________________________
flatten_1 (Flatten)          (None, 6272)              0         
_________________________________________________________________
dense_1 (Dense)              (None, 64)                401472    
_________________________________________________________________
dense_2 (Dense)              (None, 1)                 65        
=================================================================
Total params: 420,353
Trainable params: 420,353
Non-trainable params: 0
_________________________________________________________________
Written as/home/mfumagal/Data/ImaGene/Binary/Results/Epoch1/S200/Cols/net.png
200Cols12
200Cols13
200Cols14
200Cols15
200Cols16
200Cols17
200Cols18
200Cols19
200Cols110
[0.5760311243534089, 0.7965]
/home/mfumagal/Data/ImaGene/Binary/Results/Epoch2/S200/Cols
200Cols21
_________________________________________________________________
Layer (type)                 Output Shape              Param #   
=================================================================
conv2d_1 (Conv2D)            (None, 126, 126, 32)      320       
_________________________________________________________________
max_pooling2d_1 (MaxPooling2 (None, 63, 63, 32)        0         
_________________________________________________________________
conv2d_2 (Conv2D)            (None, 61, 61, 32)        9248      
_________________________________________________________________
max_pooling2d_2 (MaxPooling2 (None, 30, 30, 32)        0         
_________________________________________________________________
conv2d_3 (Conv2D)            (None, 28, 28, 32)        9248      
_________________________________________________________________
max_pooling2d_3 (MaxPooling2 (None, 14, 14, 32)        0         
_________________________________________________________________
flatten_1 (Flatten)          (None, 6272)              0         
_________________________________________________________________
dense_1 (Dense)              (None, 64)                401472    
_________________________________________________________________
dense_2 (Dense)              (None, 1)                 65        
=================================================================
Total params: 420,353
Trainable params: 420,353
Non-trainable params: 0
_________________________________________________________________
Written as/home/mfumagal/Data/ImaGene/Binary/Results/Epoch2/S200/Cols/net.png
200Cols22
200Cols23
200Cols24
200Cols25
200Cols26
200Cols27
200Cols28
200Cols29
200Cols210
[0.7007505192756652, 0.7025]
/home/mfumagal/Data/ImaGene/Binary/Results/Epoch3/S200/Cols
200Cols31
_________________________________________________________________
Layer (type)                 Output Shape              Param #   
=================================================================
conv2d_1 (Conv2D)            (None, 126, 126, 32)      320       
_________________________________________________________________
max_pooling2d_1 (MaxPooling2 (None, 63, 63, 32)        0         
_________________________________________________________________
conv2d_2 (Conv2D)            (None, 61, 61, 32)        9248      
_________________________________________________________________
max_pooling2d_2 (MaxPooling2 (None, 30, 30, 32)        0         
_________________________________________________________________
conv2d_3 (Conv2D)            (None, 28, 28, 32)        9248      
_________________________________________________________________
max_pooling2d_3 (MaxPooling2 (None, 14, 14, 32)        0         
_________________________________________________________________
flatten_1 (Flatten)          (None, 6272)              0         
_________________________________________________________________
dense_1 (Dense)              (None, 64)                401472    
_________________________________________________________________
dense_2 (Dense)              (None, 1)                 65        
=================================================================
Total params: 420,353
Trainable params: 420,353
Non-trainable params: 0
_________________________________________________________________
Written as/home/mfumagal/Data/ImaGene/Binary/Results/Epoch3/S200/Cols/net.png
200Cols32
200Cols33
200Cols34
200Cols35
200Cols36
200Cols37
200Cols38
200Cols39
200Cols310
[0.7867422561645507, 0.5]
/home/mfumagal/Data/ImaGene/Binary/Results/Epoch1/S200/RowsCols
200RowsCols11
_________________________________________________________________
Layer (type)                 Output Shape              Param #   
=================================================================
conv2d_1 (Conv2D)            (None, 126, 126, 32)      320       
_________________________________________________________________
max_pooling2d_1 (MaxPooling2 (None, 63, 63, 32)        0         
_________________________________________________________________
conv2d_2 (Conv2D)            (None, 61, 61, 32)        9248      
_________________________________________________________________
max_pooling2d_2 (MaxPooling2 (None, 30, 30, 32)        0         
_________________________________________________________________
conv2d_3 (Conv2D)            (None, 28, 28, 32)        9248      
_________________________________________________________________
max_pooling2d_3 (MaxPooling2 (None, 14, 14, 32)        0         
_________________________________________________________________
flatten_1 (Flatten)          (None, 6272)              0         
_________________________________________________________________
dense_1 (Dense)              (None, 64)                401472    
_________________________________________________________________
dense_2 (Dense)              (None, 1)                 65        
=================================================================
Total params: 420,353
Trainable params: 420,353
Non-trainable params: 0
_________________________________________________________________
Written as/home/mfumagal/Data/ImaGene/Binary/Results/Epoch1/S200/RowsCols/net.png
200RowsCols12
200RowsCols13
200RowsCols14
200RowsCols15
200RowsCols16
200RowsCols17
200RowsCols18
200RowsCols19
200RowsCols110
[0.509924364566803, 0.85875]
/home/mfumagal/Data/ImaGene/Binary/Results/Epoch2/S200/RowsCols
200RowsCols21
_________________________________________________________________
Layer (type)                 Output Shape              Param #   
=================================================================
conv2d_1 (Conv2D)            (None, 126, 126, 32)      320       
_________________________________________________________________
max_pooling2d_1 (MaxPooling2 (None, 63, 63, 32)        0         
_________________________________________________________________
conv2d_2 (Conv2D)            (None, 61, 61, 32)        9248      
_________________________________________________________________
max_pooling2d_2 (MaxPooling2 (None, 30, 30, 32)        0         
_________________________________________________________________
conv2d_3 (Conv2D)            (None, 28, 28, 32)        9248      
_________________________________________________________________
max_pooling2d_3 (MaxPooling2 (None, 14, 14, 32)        0         
_________________________________________________________________
flatten_1 (Flatten)          (None, 6272)              0         
_________________________________________________________________
dense_1 (Dense)              (None, 64)                401472    
_________________________________________________________________
dense_2 (Dense)              (None, 1)                 65        
=================================================================
Total params: 420,353
Trainable params: 420,353
Non-trainable params: 0
_________________________________________________________________
Written as/home/mfumagal/Data/ImaGene/Binary/Results/Epoch2/S200/RowsCols/net.png
200RowsCols22
200RowsCols23
200RowsCols24
200RowsCols25
200RowsCols26
200RowsCols27
200RowsCols28
200RowsCols29
200RowsCols210
[0.23364389383792877, 0.98125]
/home/mfumagal/Data/ImaGene/Binary/Results/Epoch3/S200/RowsCols
200RowsCols31
_________________________________________________________________
Layer (type)                 Output Shape              Param #   
=================================================================
conv2d_1 (Conv2D)            (None, 126, 126, 32)      320       
_________________________________________________________________
max_pooling2d_1 (MaxPooling2 (None, 63, 63, 32)        0         
_________________________________________________________________
conv2d_2 (Conv2D)            (None, 61, 61, 32)        9248      
_________________________________________________________________
max_pooling2d_2 (MaxPooling2 (None, 30, 30, 32)        0         
_________________________________________________________________
conv2d_3 (Conv2D)            (None, 28, 28, 32)        9248      
_________________________________________________________________
max_pooling2d_3 (MaxPooling2 (None, 14, 14, 32)        0         
_________________________________________________________________
flatten_1 (Flatten)          (None, 6272)              0         
_________________________________________________________________
dense_1 (Dense)              (None, 64)                401472    
_________________________________________________________________
dense_2 (Dense)              (None, 1)                 65        
=================================================================
Total params: 420,353
Trainable params: 420,353
Non-trainable params: 0
_________________________________________________________________
Written as/home/mfumagal/Data/ImaGene/Binary/Results/Epoch3/S200/RowsCols/net.png
200RowsCols32
200RowsCols33
200RowsCols34
200RowsCols35
200RowsCols36
200RowsCols37
200RowsCols38
200RowsCols39
200RowsCols310
[0.2298139568567276, 0.97975]
/home/mfumagal/Data/ImaGene/Binary/Results/Epoch1/S300/None
300None11
_________________________________________________________________
Layer (type)                 Output Shape              Param #   
=================================================================
conv2d_1 (Conv2D)            (None, 126, 126, 32)      320       
_________________________________________________________________
max_pooling2d_1 (MaxPooling2 (None, 63, 63, 32)        0         
_________________________________________________________________
conv2d_2 (Conv2D)            (None, 61, 61, 32)        9248      
_________________________________________________________________
max_pooling2d_2 (MaxPooling2 (None, 30, 30, 32)        0         
_________________________________________________________________
conv2d_3 (Conv2D)            (None, 28, 28, 32)        9248      
_________________________________________________________________
max_pooling2d_3 (MaxPooling2 (None, 14, 14, 32)        0         
_________________________________________________________________
flatten_1 (Flatten)          (None, 6272)              0         
_________________________________________________________________
dense_1 (Dense)              (None, 64)                401472    
_________________________________________________________________
dense_2 (Dense)              (None, 1)                 65        
=================================================================
Total params: 420,353
Trainable params: 420,353
Non-trainable params: 0
_________________________________________________________________
Written as/home/mfumagal/Data/ImaGene/Binary/Results/Epoch1/S300/None/net.png
300None12
300None13
300None14
300None15
300None16
300None17
300None18
300None19
300None110
[0.4258266625404358, 0.8875]
/home/mfumagal/Data/ImaGene/Binary/Results/Epoch2/S300/None
300None21
_________________________________________________________________
Layer (type)                 Output Shape              Param #   
=================================================================
conv2d_1 (Conv2D)            (None, 126, 126, 32)      320       
_________________________________________________________________
max_pooling2d_1 (MaxPooling2 (None, 63, 63, 32)        0         
_________________________________________________________________
conv2d_2 (Conv2D)            (None, 61, 61, 32)        9248      
_________________________________________________________________
max_pooling2d_2 (MaxPooling2 (None, 30, 30, 32)        0         
_________________________________________________________________
conv2d_3 (Conv2D)            (None, 28, 28, 32)        9248      
_________________________________________________________________
max_pooling2d_3 (MaxPooling2 (None, 14, 14, 32)        0         
_________________________________________________________________
flatten_1 (Flatten)          (None, 6272)              0         
_________________________________________________________________
dense_1 (Dense)              (None, 64)                401472    
_________________________________________________________________
dense_2 (Dense)              (None, 1)                 65        
=================================================================
Total params: 420,353
Trainable params: 420,353
Non-trainable params: 0
_________________________________________________________________
Written as/home/mfumagal/Data/ImaGene/Binary/Results/Epoch2/S300/None/net.png
300None22
300None23
300None24
300None25
300None26
300None27
300None28
300None29
300None210
[0.7868464012145996, 0.5]
/home/mfumagal/Data/ImaGene/Binary/Results/Epoch3/S300/None
300None31
_________________________________________________________________
Layer (type)                 Output Shape              Param #   
=================================================================
conv2d_1 (Conv2D)            (None, 126, 126, 32)      320       
_________________________________________________________________
max_pooling2d_1 (MaxPooling2 (None, 63, 63, 32)        0         
_________________________________________________________________
conv2d_2 (Conv2D)            (None, 61, 61, 32)        9248      
_________________________________________________________________
max_pooling2d_2 (MaxPooling2 (None, 30, 30, 32)        0         
_________________________________________________________________
conv2d_3 (Conv2D)            (None, 28, 28, 32)        9248      
_________________________________________________________________
max_pooling2d_3 (MaxPooling2 (None, 14, 14, 32)        0         
_________________________________________________________________
flatten_1 (Flatten)          (None, 6272)              0         
_________________________________________________________________
dense_1 (Dense)              (None, 64)                401472    
_________________________________________________________________
dense_2 (Dense)              (None, 1)                 65        
=================================================================
Total params: 420,353
Trainable params: 420,353
Non-trainable params: 0
_________________________________________________________________
Written as/home/mfumagal/Data/ImaGene/Binary/Results/Epoch3/S300/None/net.png
300None32
300None33
300None34
300None35
300None36
300None37
300None38
300None39
300None310
[0.5667506451606751, 0.855]
/home/mfumagal/Data/ImaGene/Binary/Results/Epoch1/S300/Rows
300Rows11
_________________________________________________________________
Layer (type)                 Output Shape              Param #   
=================================================================
conv2d_1 (Conv2D)            (None, 126, 126, 32)      320       
_________________________________________________________________
max_pooling2d_1 (MaxPooling2 (None, 63, 63, 32)        0         
_________________________________________________________________
conv2d_2 (Conv2D)            (None, 61, 61, 32)        9248      
_________________________________________________________________
max_pooling2d_2 (MaxPooling2 (None, 30, 30, 32)        0         
_________________________________________________________________
conv2d_3 (Conv2D)            (None, 28, 28, 32)        9248      
_________________________________________________________________
max_pooling2d_3 (MaxPooling2 (None, 14, 14, 32)        0         
_________________________________________________________________
flatten_1 (Flatten)          (None, 6272)              0         
_________________________________________________________________
dense_1 (Dense)              (None, 64)                401472    
_________________________________________________________________
dense_2 (Dense)              (None, 1)                 65        
=================================================================
Total params: 420,353
Trainable params: 420,353
Non-trainable params: 0
_________________________________________________________________
Written as/home/mfumagal/Data/ImaGene/Binary/Results/Epoch1/S300/Rows/net.png
300Rows12
300Rows13
300Rows14
300Rows15
300Rows16
300Rows17
300Rows18
300Rows19
300Rows110
[0.37392862010002137, 0.919]
/home/mfumagal/Data/ImaGene/Binary/Results/Epoch2/S300/Rows
300Rows21
_________________________________________________________________
Layer (type)                 Output Shape              Param #   
=================================================================
conv2d_1 (Conv2D)            (None, 126, 126, 32)      320       
_________________________________________________________________
max_pooling2d_1 (MaxPooling2 (None, 63, 63, 32)        0         
_________________________________________________________________
conv2d_2 (Conv2D)            (None, 61, 61, 32)        9248      
_________________________________________________________________
max_pooling2d_2 (MaxPooling2 (None, 30, 30, 32)        0         
_________________________________________________________________
conv2d_3 (Conv2D)            (None, 28, 28, 32)        9248      
_________________________________________________________________
max_pooling2d_3 (MaxPooling2 (None, 14, 14, 32)        0         
_________________________________________________________________
flatten_1 (Flatten)          (None, 6272)              0         
_________________________________________________________________
dense_1 (Dense)              (None, 64)                401472    
_________________________________________________________________
dense_2 (Dense)              (None, 1)                 65        
=================================================================
Total params: 420,353
Trainable params: 420,353
Non-trainable params: 0
_________________________________________________________________
Written as/home/mfumagal/Data/ImaGene/Binary/Results/Epoch2/S300/Rows/net.png
300Rows22
300Rows23
300Rows24
300Rows25
300Rows26
300Rows27
300Rows28
300Rows29
300Rows210
[0.7868044366836547, 0.5]
/home/mfumagal/Data/ImaGene/Binary/Results/Epoch3/S300/Rows
300Rows31
_________________________________________________________________
Layer (type)                 Output Shape              Param #   
=================================================================
conv2d_1 (Conv2D)            (None, 126, 126, 32)      320       
_________________________________________________________________
max_pooling2d_1 (MaxPooling2 (None, 63, 63, 32)        0         
_________________________________________________________________
conv2d_2 (Conv2D)            (None, 61, 61, 32)        9248      
_________________________________________________________________
max_pooling2d_2 (MaxPooling2 (None, 30, 30, 32)        0         
_________________________________________________________________
conv2d_3 (Conv2D)            (None, 28, 28, 32)        9248      
_________________________________________________________________
max_pooling2d_3 (MaxPooling2 (None, 14, 14, 32)        0         
_________________________________________________________________
flatten_1 (Flatten)          (None, 6272)              0         
_________________________________________________________________
dense_1 (Dense)              (None, 64)                401472    
_________________________________________________________________
dense_2 (Dense)              (None, 1)                 65        
=================================================================
Total params: 420,353
Trainable params: 420,353
Non-trainable params: 0
_________________________________________________________________
Written as/home/mfumagal/Data/ImaGene/Binary/Results/Epoch3/S300/Rows/net.png
300Rows32
300Rows33
300Rows34
300Rows35
300Rows36
300Rows37
300Rows38
300Rows39
300Rows310
[0.23057551848888397, 0.98925]
/home/mfumagal/Data/ImaGene/Binary/Results/Epoch1/S300/Cols
300Cols11
_________________________________________________________________
Layer (type)                 Output Shape              Param #   
=================================================================
conv2d_1 (Conv2D)            (None, 126, 126, 32)      320       
_________________________________________________________________
max_pooling2d_1 (MaxPooling2 (None, 63, 63, 32)        0         
_________________________________________________________________
conv2d_2 (Conv2D)            (None, 61, 61, 32)        9248      
_________________________________________________________________
max_pooling2d_2 (MaxPooling2 (None, 30, 30, 32)        0         
_________________________________________________________________
conv2d_3 (Conv2D)            (None, 28, 28, 32)        9248      
_________________________________________________________________
max_pooling2d_3 (MaxPooling2 (None, 14, 14, 32)        0         
_________________________________________________________________
flatten_1 (Flatten)          (None, 6272)              0         
_________________________________________________________________
dense_1 (Dense)              (None, 64)                401472    
_________________________________________________________________
dense_2 (Dense)              (None, 1)                 65        
=================================================================
Total params: 420,353
Trainable params: 420,353
Non-trainable params: 0
_________________________________________________________________
Written as/home/mfumagal/Data/ImaGene/Binary/Results/Epoch1/S300/Cols/net.png
300Cols12
300Cols13
300Cols14
300Cols15
300Cols16
300Cols17
300Cols18
300Cols19
300Cols110
[0.6304441304206848, 0.86025]
/home/mfumagal/Data/ImaGene/Binary/Results/Epoch2/S300/Cols
300Cols21
_________________________________________________________________
Layer (type)                 Output Shape              Param #   
=================================================================
conv2d_1 (Conv2D)            (None, 126, 126, 32)      320       
_________________________________________________________________
max_pooling2d_1 (MaxPooling2 (None, 63, 63, 32)        0         
_________________________________________________________________
conv2d_2 (Conv2D)            (None, 61, 61, 32)        9248      
_________________________________________________________________
max_pooling2d_2 (MaxPooling2 (None, 30, 30, 32)        0         
_________________________________________________________________
conv2d_3 (Conv2D)            (None, 28, 28, 32)        9248      
_________________________________________________________________
max_pooling2d_3 (MaxPooling2 (None, 14, 14, 32)        0         
_________________________________________________________________
flatten_1 (Flatten)          (None, 6272)              0         
_________________________________________________________________
dense_1 (Dense)              (None, 64)                401472    
_________________________________________________________________
dense_2 (Dense)              (None, 1)                 65        
=================================================================
Total params: 420,353
Trainable params: 420,353
Non-trainable params: 0
_________________________________________________________________
Written as/home/mfumagal/Data/ImaGene/Binary/Results/Epoch2/S300/Cols/net.png
300Cols22
300Cols23
300Cols24
300Cols25
300Cols26
300Cols27
300Cols28
300Cols29
300Cols210
[0.619090140581131, 0.78375]
/home/mfumagal/Data/ImaGene/Binary/Results/Epoch3/S300/Cols
300Cols31
_________________________________________________________________
Layer (type)                 Output Shape              Param #   
=================================================================
conv2d_1 (Conv2D)            (None, 126, 126, 32)      320       
_________________________________________________________________
max_pooling2d_1 (MaxPooling2 (None, 63, 63, 32)        0         
_________________________________________________________________
conv2d_2 (Conv2D)            (None, 61, 61, 32)        9248      
_________________________________________________________________
max_pooling2d_2 (MaxPooling2 (None, 30, 30, 32)        0         
_________________________________________________________________
conv2d_3 (Conv2D)            (None, 28, 28, 32)        9248      
_________________________________________________________________
max_pooling2d_3 (MaxPooling2 (None, 14, 14, 32)        0         
_________________________________________________________________
flatten_1 (Flatten)          (None, 6272)              0         
_________________________________________________________________
dense_1 (Dense)              (None, 64)                401472    
_________________________________________________________________
dense_2 (Dense)              (None, 1)                 65        
=================================================================
Total params: 420,353
Trainable params: 420,353
Non-trainable params: 0
_________________________________________________________________
Written as/home/mfumagal/Data/ImaGene/Binary/Results/Epoch3/S300/Cols/net.png
300Cols32
300Cols33
300Cols34
300Cols35
300Cols36
300Cols37
300Cols38
300Cols39
300Cols310
[0.39185057735443113, 0.9355]
/home/mfumagal/Data/ImaGene/Binary/Results/Epoch1/S300/RowsCols
300RowsCols11
_________________________________________________________________
Layer (type)                 Output Shape              Param #   
=================================================================
conv2d_1 (Conv2D)            (None, 126, 126, 32)      320       
_________________________________________________________________
max_pooling2d_1 (MaxPooling2 (None, 63, 63, 32)        0         
_________________________________________________________________
conv2d_2 (Conv2D)            (None, 61, 61, 32)        9248      
_________________________________________________________________
max_pooling2d_2 (MaxPooling2 (None, 30, 30, 32)        0         
_________________________________________________________________
conv2d_3 (Conv2D)            (None, 28, 28, 32)        9248      
_________________________________________________________________
max_pooling2d_3 (MaxPooling2 (None, 14, 14, 32)        0         
_________________________________________________________________
flatten_1 (Flatten)          (None, 6272)              0         
_________________________________________________________________
dense_1 (Dense)              (None, 64)                401472    
_________________________________________________________________
dense_2 (Dense)              (None, 1)                 65        
=================================================================
Total params: 420,353
Trainable params: 420,353
Non-trainable params: 0
_________________________________________________________________
Written as/home/mfumagal/Data/ImaGene/Binary/Results/Epoch1/S300/RowsCols/net.png
300RowsCols12
300RowsCols13
300RowsCols14
300RowsCols15
300RowsCols16
300RowsCols17
300RowsCols18
300RowsCols19
300RowsCols110
[0.2882636078596115, 0.97875]
/home/mfumagal/Data/ImaGene/Binary/Results/Epoch2/S300/RowsCols
300RowsCols21
_________________________________________________________________
Layer (type)                 Output Shape              Param #   
=================================================================
conv2d_1 (Conv2D)            (None, 126, 126, 32)      320       
_________________________________________________________________
max_pooling2d_1 (MaxPooling2 (None, 63, 63, 32)        0         
_________________________________________________________________
conv2d_2 (Conv2D)            (None, 61, 61, 32)        9248      
_________________________________________________________________
max_pooling2d_2 (MaxPooling2 (None, 30, 30, 32)        0         
_________________________________________________________________
conv2d_3 (Conv2D)            (None, 28, 28, 32)        9248      
_________________________________________________________________
max_pooling2d_3 (MaxPooling2 (None, 14, 14, 32)        0         
_________________________________________________________________
flatten_1 (Flatten)          (None, 6272)              0         
_________________________________________________________________
dense_1 (Dense)              (None, 64)                401472    
_________________________________________________________________
dense_2 (Dense)              (None, 1)                 65        
=================================================================
Total params: 420,353
Trainable params: 420,353
Non-trainable params: 0
_________________________________________________________________
Written as/home/mfumagal/Data/ImaGene/Binary/Results/Epoch2/S300/RowsCols/net.png
300RowsCols22
300RowsCols23
300RowsCols24
300RowsCols25
300RowsCols26
300RowsCols27
300RowsCols28
300RowsCols29
300RowsCols210
[0.22626958131790162, 0.98975]
/home/mfumagal/Data/ImaGene/Binary/Results/Epoch3/S300/RowsCols
300RowsCols31
_________________________________________________________________
Layer (type)                 Output Shape              Param #   
=================================================================
conv2d_1 (Conv2D)            (None, 126, 126, 32)      320       
_________________________________________________________________
max_pooling2d_1 (MaxPooling2 (None, 63, 63, 32)        0         
_________________________________________________________________
conv2d_2 (Conv2D)            (None, 61, 61, 32)        9248      
_________________________________________________________________
max_pooling2d_2 (MaxPooling2 (None, 30, 30, 32)        0         
_________________________________________________________________
conv2d_3 (Conv2D)            (None, 28, 28, 32)        9248      
_________________________________________________________________
max_pooling2d_3 (MaxPooling2 (None, 14, 14, 32)        0         
_________________________________________________________________
flatten_1 (Flatten)          (None, 6272)              0         
_________________________________________________________________
dense_1 (Dense)              (None, 64)                401472    
_________________________________________________________________
dense_2 (Dense)              (None, 1)                 65        
=================================================================
Total params: 420,353
Trainable params: 420,353
Non-trainable params: 0
_________________________________________________________________
Written as/home/mfumagal/Data/ImaGene/Binary/Results/Epoch3/S300/RowsCols/net.png
300RowsCols32
300RowsCols33
300RowsCols34
300RowsCols35
300RowsCols36
300RowsCols37
300RowsCols38
300RowsCols39
300RowsCols310
[0.2865185394287109, 0.98475]
/home/mfumagal/Data/ImaGene/Binary/Results/Epoch1/S400/None
400None11
_________________________________________________________________
Layer (type)                 Output Shape              Param #   
=================================================================
conv2d_1 (Conv2D)            (None, 126, 126, 32)      320       
_________________________________________________________________
max_pooling2d_1 (MaxPooling2 (None, 63, 63, 32)        0         
_________________________________________________________________
conv2d_2 (Conv2D)            (None, 61, 61, 32)        9248      
_________________________________________________________________
max_pooling2d_2 (MaxPooling2 (None, 30, 30, 32)        0         
_________________________________________________________________
conv2d_3 (Conv2D)            (None, 28, 28, 32)        9248      
_________________________________________________________________
max_pooling2d_3 (MaxPooling2 (None, 14, 14, 32)        0         
_________________________________________________________________
flatten_1 (Flatten)          (None, 6272)              0         
_________________________________________________________________
dense_1 (Dense)              (None, 64)                401472    
_________________________________________________________________
dense_2 (Dense)              (None, 1)                 65        
=================================================================
Total params: 420,353
Trainable params: 420,353
Non-trainable params: 0
_________________________________________________________________
Written as/home/mfumagal/Data/ImaGene/Binary/Results/Epoch1/S400/None/net.png
400None12
400None13
400None14
400None15
400None16
400None17
400None18
400None19
400None110
[0.8788909082412719, 0.732]
/home/mfumagal/Data/ImaGene/Binary/Results/Epoch2/S400/None
400None21
_________________________________________________________________
Layer (type)                 Output Shape              Param #   
=================================================================
conv2d_1 (Conv2D)            (None, 126, 126, 32)      320       
_________________________________________________________________
max_pooling2d_1 (MaxPooling2 (None, 63, 63, 32)        0         
_________________________________________________________________
conv2d_2 (Conv2D)            (None, 61, 61, 32)        9248      
_________________________________________________________________
max_pooling2d_2 (MaxPooling2 (None, 30, 30, 32)        0         
_________________________________________________________________
conv2d_3 (Conv2D)            (None, 28, 28, 32)        9248      
_________________________________________________________________
max_pooling2d_3 (MaxPooling2 (None, 14, 14, 32)        0         
_________________________________________________________________
flatten_1 (Flatten)          (None, 6272)              0         
_________________________________________________________________
dense_1 (Dense)              (None, 64)                401472    
_________________________________________________________________
dense_2 (Dense)              (None, 1)                 65        
=================================================================
Total params: 420,353
Trainable params: 420,353
Non-trainable params: 0
_________________________________________________________________
Written as/home/mfumagal/Data/ImaGene/Binary/Results/Epoch2/S400/None/net.png
400None22
400None23
400None24
400None25
400None26
400None27
400None28
400None29
400None210
[0.7867772035598755, 0.5]
/home/mfumagal/Data/ImaGene/Binary/Results/Epoch3/S400/None
400None31
_________________________________________________________________
Layer (type)                 Output Shape              Param #   
=================================================================
conv2d_1 (Conv2D)            (None, 126, 126, 32)      320       
_________________________________________________________________
max_pooling2d_1 (MaxPooling2 (None, 63, 63, 32)        0         
_________________________________________________________________
conv2d_2 (Conv2D)            (None, 61, 61, 32)        9248      
_________________________________________________________________
max_pooling2d_2 (MaxPooling2 (None, 30, 30, 32)        0         
_________________________________________________________________
conv2d_3 (Conv2D)            (None, 28, 28, 32)        9248      
_________________________________________________________________
max_pooling2d_3 (MaxPooling2 (None, 14, 14, 32)        0         
_________________________________________________________________
flatten_1 (Flatten)          (None, 6272)              0         
_________________________________________________________________
dense_1 (Dense)              (None, 64)                401472    
_________________________________________________________________
dense_2 (Dense)              (None, 1)                 65        
=================================================================
Total params: 420,353
Trainable params: 420,353
Non-trainable params: 0
_________________________________________________________________
Written as/home/mfumagal/Data/ImaGene/Binary/Results/Epoch3/S400/None/net.png
400None32
400None33
400None34
400None35
400None36
400None37
400None38
400None39
400None310
[0.7867775559425354, 0.5]
/home/mfumagal/Data/ImaGene/Binary/Results/Epoch1/S400/Rows
400Rows11
_________________________________________________________________
Layer (type)                 Output Shape              Param #   
=================================================================
conv2d_1 (Conv2D)            (None, 126, 126, 32)      320       
_________________________________________________________________
max_pooling2d_1 (MaxPooling2 (None, 63, 63, 32)        0         
_________________________________________________________________
conv2d_2 (Conv2D)            (None, 61, 61, 32)        9248      
_________________________________________________________________
max_pooling2d_2 (MaxPooling2 (None, 30, 30, 32)        0         
_________________________________________________________________
conv2d_3 (Conv2D)            (None, 28, 28, 32)        9248      
_________________________________________________________________
max_pooling2d_3 (MaxPooling2 (None, 14, 14, 32)        0         
_________________________________________________________________
flatten_1 (Flatten)          (None, 6272)              0         
_________________________________________________________________
dense_1 (Dense)              (None, 64)                401472    
_________________________________________________________________
dense_2 (Dense)              (None, 1)                 65        
=================================================================
Total params: 420,353
Trainable params: 420,353
Non-trainable params: 0
_________________________________________________________________
Written as/home/mfumagal/Data/ImaGene/Binary/Results/Epoch1/S400/Rows/net.png
400Rows12
400Rows13
400Rows14
400Rows15
400Rows16
400Rows17
400Rows18
400Rows19
400Rows110
[0.3772953817844391, 0.96925]
/home/mfumagal/Data/ImaGene/Binary/Results/Epoch2/S400/Rows
400Rows21
_________________________________________________________________
Layer (type)                 Output Shape              Param #   
=================================================================
conv2d_1 (Conv2D)            (None, 126, 126, 32)      320       
_________________________________________________________________
max_pooling2d_1 (MaxPooling2 (None, 63, 63, 32)        0         
_________________________________________________________________
conv2d_2 (Conv2D)            (None, 61, 61, 32)        9248      
_________________________________________________________________
max_pooling2d_2 (MaxPooling2 (None, 30, 30, 32)        0         
_________________________________________________________________
conv2d_3 (Conv2D)            (None, 28, 28, 32)        9248      
_________________________________________________________________
max_pooling2d_3 (MaxPooling2 (None, 14, 14, 32)        0         
_________________________________________________________________
flatten_1 (Flatten)          (None, 6272)              0         
_________________________________________________________________
dense_1 (Dense)              (None, 64)                401472    
_________________________________________________________________
dense_2 (Dense)              (None, 1)                 65        
=================================================================
Total params: 420,353
Trainable params: 420,353
Non-trainable params: 0
_________________________________________________________________
Written as/home/mfumagal/Data/ImaGene/Binary/Results/Epoch2/S400/Rows/net.png
400Rows22
400Rows23
400Rows24
400Rows25
400Rows26
400Rows27
400Rows28
400Rows29
400Rows210
[0.7869328274726868, 0.5]
/home/mfumagal/Data/ImaGene/Binary/Results/Epoch3/S400/Rows
400Rows31
_________________________________________________________________
Layer (type)                 Output Shape              Param #   
=================================================================
conv2d_1 (Conv2D)            (None, 126, 126, 32)      320       
_________________________________________________________________
max_pooling2d_1 (MaxPooling2 (None, 63, 63, 32)        0         
_________________________________________________________________
conv2d_2 (Conv2D)            (None, 61, 61, 32)        9248      
_________________________________________________________________
max_pooling2d_2 (MaxPooling2 (None, 30, 30, 32)        0         
_________________________________________________________________
conv2d_3 (Conv2D)            (None, 28, 28, 32)        9248      
_________________________________________________________________
max_pooling2d_3 (MaxPooling2 (None, 14, 14, 32)        0         
_________________________________________________________________
flatten_1 (Flatten)          (None, 6272)              0         
_________________________________________________________________
dense_1 (Dense)              (None, 64)                401472    
_________________________________________________________________
dense_2 (Dense)              (None, 1)                 65        
=================================================================
Total params: 420,353
Trainable params: 420,353
Non-trainable params: 0
_________________________________________________________________
Written as/home/mfumagal/Data/ImaGene/Binary/Results/Epoch3/S400/Rows/net.png
400Rows32
400Rows33
400Rows34
400Rows35
400Rows36
400Rows37
400Rows38
400Rows39
400Rows310
[0.6805144605636597, 0.81325]
/home/mfumagal/Data/ImaGene/Binary/Results/Epoch1/S400/Cols
400Cols11
_________________________________________________________________
Layer (type)                 Output Shape              Param #   
=================================================================
conv2d_1 (Conv2D)            (None, 126, 126, 32)      320       
_________________________________________________________________
max_pooling2d_1 (MaxPooling2 (None, 63, 63, 32)        0         
_________________________________________________________________
conv2d_2 (Conv2D)            (None, 61, 61, 32)        9248      
_________________________________________________________________
max_pooling2d_2 (MaxPooling2 (None, 30, 30, 32)        0         
_________________________________________________________________
conv2d_3 (Conv2D)            (None, 28, 28, 32)        9248      
_________________________________________________________________
max_pooling2d_3 (MaxPooling2 (None, 14, 14, 32)        0         
_________________________________________________________________
flatten_1 (Flatten)          (None, 6272)              0         
_________________________________________________________________
dense_1 (Dense)              (None, 64)                401472    
_________________________________________________________________
dense_2 (Dense)              (None, 1)                 65        
=================================================================
Total params: 420,353
Trainable params: 420,353
Non-trainable params: 0
_________________________________________________________________
Written as/home/mfumagal/Data/ImaGene/Binary/Results/Epoch1/S400/Cols/net.png
400Cols12
400Cols13
400Cols14
400Cols15
400Cols16
400Cols17
400Cols18
400Cols19
400Cols110
[0.36559979248046875, 0.9685]
/home/mfumagal/Data/ImaGene/Binary/Results/Epoch2/S400/Cols
400Cols21
_________________________________________________________________
Layer (type)                 Output Shape              Param #   
=================================================================
conv2d_1 (Conv2D)            (None, 126, 126, 32)      320       
_________________________________________________________________
max_pooling2d_1 (MaxPooling2 (None, 63, 63, 32)        0         
_________________________________________________________________
conv2d_2 (Conv2D)            (None, 61, 61, 32)        9248      
_________________________________________________________________
max_pooling2d_2 (MaxPooling2 (None, 30, 30, 32)        0         
_________________________________________________________________
conv2d_3 (Conv2D)            (None, 28, 28, 32)        9248      
_________________________________________________________________
max_pooling2d_3 (MaxPooling2 (None, 14, 14, 32)        0         
_________________________________________________________________
flatten_1 (Flatten)          (None, 6272)              0         
_________________________________________________________________
dense_1 (Dense)              (None, 64)                401472    
_________________________________________________________________
dense_2 (Dense)              (None, 1)                 65        
=================================================================
Total params: 420,353
Trainable params: 420,353
Non-trainable params: 0
_________________________________________________________________
Written as/home/mfumagal/Data/ImaGene/Binary/Results/Epoch2/S400/Cols/net.png
400Cols22
400Cols23
400Cols24
400Cols25
400Cols26
400Cols27
400Cols28
400Cols29
400Cols210
[0.660232971906662, 0.74225]
/home/mfumagal/Data/ImaGene/Binary/Results/Epoch3/S400/Cols
400Cols31
_________________________________________________________________
Layer (type)                 Output Shape              Param #   
=================================================================
conv2d_1 (Conv2D)            (None, 126, 126, 32)      320       
_________________________________________________________________
max_pooling2d_1 (MaxPooling2 (None, 63, 63, 32)        0         
_________________________________________________________________
conv2d_2 (Conv2D)            (None, 61, 61, 32)        9248      
_________________________________________________________________
max_pooling2d_2 (MaxPooling2 (None, 30, 30, 32)        0         
_________________________________________________________________
conv2d_3 (Conv2D)            (None, 28, 28, 32)        9248      
_________________________________________________________________
max_pooling2d_3 (MaxPooling2 (None, 14, 14, 32)        0         
_________________________________________________________________
flatten_1 (Flatten)          (None, 6272)              0         
_________________________________________________________________
dense_1 (Dense)              (None, 64)                401472    
_________________________________________________________________
dense_2 (Dense)              (None, 1)                 65        
=================================================================
Total params: 420,353
Trainable params: 420,353
Non-trainable params: 0
_________________________________________________________________
Written as/home/mfumagal/Data/ImaGene/Binary/Results/Epoch3/S400/Cols/net.png
400Cols32
400Cols33
400Cols34
400Cols35
400Cols36
400Cols37
400Cols38
400Cols39
400Cols310
[0.3540146231651306, 0.972]
/home/mfumagal/Data/ImaGene/Binary/Results/Epoch1/S400/RowsCols
400RowsCols11
_________________________________________________________________
Layer (type)                 Output Shape              Param #   
=================================================================
conv2d_1 (Conv2D)            (None, 126, 126, 32)      320       
_________________________________________________________________
max_pooling2d_1 (MaxPooling2 (None, 63, 63, 32)        0         
_________________________________________________________________
conv2d_2 (Conv2D)            (None, 61, 61, 32)        9248      
_________________________________________________________________
max_pooling2d_2 (MaxPooling2 (None, 30, 30, 32)        0         
_________________________________________________________________
conv2d_3 (Conv2D)            (None, 28, 28, 32)        9248      
_________________________________________________________________
max_pooling2d_3 (MaxPooling2 (None, 14, 14, 32)        0         
_________________________________________________________________
flatten_1 (Flatten)          (None, 6272)              0         
_________________________________________________________________
dense_1 (Dense)              (None, 64)                401472    
_________________________________________________________________
dense_2 (Dense)              (None, 1)                 65        
=================================================================
Total params: 420,353
Trainable params: 420,353
Non-trainable params: 0
_________________________________________________________________
Written as/home/mfumagal/Data/ImaGene/Binary/Results/Epoch1/S400/RowsCols/net.png
400RowsCols12
400RowsCols13
400RowsCols14
400RowsCols15
400RowsCols16
400RowsCols17
400RowsCols18
400RowsCols19
400RowsCols110
[0.2863790227174759, 0.98225]
/home/mfumagal/Data/ImaGene/Binary/Results/Epoch2/S400/RowsCols
400RowsCols21
_________________________________________________________________
Layer (type)                 Output Shape              Param #   
=================================================================
conv2d_1 (Conv2D)            (None, 126, 126, 32)      320       
_________________________________________________________________
max_pooling2d_1 (MaxPooling2 (None, 63, 63, 32)        0         
_________________________________________________________________
conv2d_2 (Conv2D)            (None, 61, 61, 32)        9248      
_________________________________________________________________
max_pooling2d_2 (MaxPooling2 (None, 30, 30, 32)        0         
_________________________________________________________________
conv2d_3 (Conv2D)            (None, 28, 28, 32)        9248      
_________________________________________________________________
max_pooling2d_3 (MaxPooling2 (None, 14, 14, 32)        0         
_________________________________________________________________
flatten_1 (Flatten)          (None, 6272)              0         
_________________________________________________________________
dense_1 (Dense)              (None, 64)                401472    
_________________________________________________________________
dense_2 (Dense)              (None, 1)                 65        
=================================================================
Total params: 420,353
Trainable params: 420,353
Non-trainable params: 0
_________________________________________________________________
Written as/home/mfumagal/Data/ImaGene/Binary/Results/Epoch2/S400/RowsCols/net.png
400RowsCols22
400RowsCols23
400RowsCols24
400RowsCols25
400RowsCols26
400RowsCols27
400RowsCols28
400RowsCols29
400RowsCols210
[0.221587162733078, 0.98775]
/home/mfumagal/Data/ImaGene/Binary/Results/Epoch3/S400/RowsCols
400RowsCols31
_________________________________________________________________
Layer (type)                 Output Shape              Param #   
=================================================================
conv2d_1 (Conv2D)            (None, 126, 126, 32)      320       
_________________________________________________________________
max_pooling2d_1 (MaxPooling2 (None, 63, 63, 32)        0         
_________________________________________________________________
conv2d_2 (Conv2D)            (None, 61, 61, 32)        9248      
_________________________________________________________________
max_pooling2d_2 (MaxPooling2 (None, 30, 30, 32)        0         
_________________________________________________________________
conv2d_3 (Conv2D)            (None, 28, 28, 32)        9248      
_________________________________________________________________
max_pooling2d_3 (MaxPooling2 (None, 14, 14, 32)        0         
_________________________________________________________________
flatten_1 (Flatten)          (None, 6272)              0         
_________________________________________________________________
dense_1 (Dense)              (None, 64)                401472    
_________________________________________________________________
dense_2 (Dense)              (None, 1)                 65        
=================================================================
Total params: 420,353
Trainable params: 420,353
Non-trainable params: 0
_________________________________________________________________
Written as/home/mfumagal/Data/ImaGene/Binary/Results/Epoch3/S400/RowsCols/net.png
400RowsCols32
400RowsCols33
400RowsCols34
400RowsCols35
400RowsCols36
400RowsCols37
400RowsCols38
400RowsCols39
…
